learning/pytorch/model_weights.pth (torch, 440132 bytes, 6 tensors)

fc1.weight f4 [128, 784]
0	0xbc817837	-0.015804393
1	0xbd06f7ad	-0.032951046
2	0xbce065e2	-0.027392332
3	0xbc961c84	-0.018324144
4	0x3bac4040	0.0052566826
5	0x3ba2e412	0.0049710358
6	0xbcfe2c16	-0.031026881
7	0xbd04abc6	-0.03239038
8	0xbd055625	-0.032552857
9	0xbc5bd7af	-0.013418122
10	0xbbabde57	-0.005245011
11	0x3ccd0e1d	0.025031144
12	0xbcac34e3	-0.021021312
13	0x3c5614da	0.013066495
14	0xbc993584	-0.018702276
15	0x3b46fb0c	0.0030362038
16	0xbc7711d9	-0.015079939
17	0xbcd2b1a2	-0.025719468
18	0xbc8d2f1d	-0.01723438
19	0x3cea6c1b	0.028616002
20	0x3cd986d0	0.026553541
21	0xbbc5b937	-0.006034042
22	0xbcdfcbd4	-0.027318873
23	0x3d0329f7	0.032022443
24	0x3cbd6992	0.023121629
25	0xbc22e3c6	-0.009942001
26	0x3caa65b9	0.020800458
27	0xbd162a73	-0.036661576
28	0x3c76b7e9	0.015058496
29	0xbc24cf02	-0.01005912
30	0xbbb06058	-0.005382579
31	0xbc27f654	-0.0102516
32	0x3d05b49b	0.032642942
33	0x3c88a9c8	0.01668252
34	0xbadbfaf5	-0.0016783165
35	0x3c14f36a	0.009091238
36	0xbc5dac5a	-0.013529861
37	0x3ce1c9aa	0.027561981
38	0x3a299f5f	0.00064705865
39	0xbcbe870a	-0.023257751
40	0x3ce303ae	0.027711716
41	0x3c63115c	0.013859119
42	0x3c2924d9	0.010323727
43	0xbce31d46	-0.02772392
44	0x3cf8ce4c	0.030371808
45	0xbc9610d7	-0.018318577
46	0xbbf06d84	-0.007337274
47	0xbcc2a62e	-0.023760881
48	0xbc2dfb46	-0.01061899
49	0xbc7db462	-0.015484901
50	0xbc3127af	-0.010812684
51	0xbb66c65e	-0.003521345
52	0xbccdd37b	-0.025125256
53	0xbcff633f	-0.031175254
54	0x3c29de5f	0.010367959
55	0x3bcdb705	0.006277921
56	0xbbb6e5da	-0.0055815997
57	0xbca845e8	-0.020541146
58	0xbce47f97	-0.02789287
59	0x3ba786ae	0.0051124906
60	0xbd026443	-0.0318339
61	0x3c283fc8	0.010269113
62	0x3c0da604	0.008645538
63	0xbbf806c0	-0.007569164
64	0xbc66beb5	-0.014083554
65	0x3cc36b60	0.023854911
66	0xbc93cd75	-0.018042305
67	0xbc6e7f39	-0.014556699
68	0x3c425d93	0.01186313
69	0xbd06b88b	-0.032890838
70	0x3ba1c89e	0.0049372455
71	0x3ca58253	0.020203745
72	0xbc544c3e	-0.012957631
73	0x3c965549	0.018351214
74	0xbc6598c5	-0.014013474
75	0xbb83ca8f	-0.0040219496
76	0xbc26f8d8	-0.010191165
77	0x3c82fc9f	0.0159896
78	0x3d0526a0	0.03250754
79	0x3cef0d98	0.029181287
80	0xbce14e15	-0.027503053
81	0xbcd03d87	-0.025419964
82	0xbcd25814	-0.025676765
83	0xbcb65688	-0.022258058
84	0x3cfadbbd	0.030622358
85	0xbb0a2df7	-0.0021084526
86	0xbcaad32c	-0.020852648
87	0xbcf7443f	-0.03018391
88	0x3ce403a1	0.027833762
89	0xbc38c06e	-0.011276348
90	0xbcf8ea7c	-0.030385248
91	0x3c1be134	0.009514142
92	0xbc1789df	-0.00924918
93	0x3cc4d5aa	0.024027664
94	0x3d042058	0.032257408
95	0x3d09457b	0.033513527
96	0xbcca9c0a	-0.024732608
97	0xbc936634	-0.01799307
98	0x3cd82fdf	0.026390014
99	0x3c509ffd	0.012733457
100	0x3cfffed6	0.031249445
101	0x3cadf665	0.021235654
102	0x3d26a1dc	0.040681705
103	0x3cc880c9	0.024475472
104	0x3cacb7b7	0.021083696
105	0xba9116eb	-0.0011069452
106	0x3cf87717	0.030330224
107	0xbc9a77e1	-0.01885599
108	0x3c92aa6c	0.01790353
109	0x3bdeac01	0.006795407
110	0x3cbedab7	0.02329765
111	0xbcfe172a	-0.031016905
112	0x3c95123b	0.01819717
113	0xbce25630	-0.027628988
114	0xbba6bc95	-0.0050883987
115	0x3d06096d	0.032723833
116	0xbbf129f4	-0.0073597375
117	0xbbb3b5d9	-0.0054843244
118	0xbbb080a5	-0.0053864294
119	0x3d10d476	0.03535887
120	0xbca0f583	-0.01964832
121	0xbaba3d09	-0.0014208864
122	0x3c820c35	0.015874961
123	0xbc811883	-0.015758758
124	0x3c1cf3b5	0.009579589
125	0x3ce83d44	0.028349526
126	0x3c54ed03	0.012995961
127	0xbc6dcfdd	-0.0145148905
128	0x3c48b8bc	0.012251075
129	0x3b37b73e	0.0028032805
130	0xbbb06c04	-0.00538397
131	0xbbb9be6e	-0.005668453
132	0xbcd1538d	-0.025552535
133	0x3ac1c4ed	0.001478342
134	0xbcd16e5c	-0.025565319
135	0xbce71baf	-0.028211443
136	0x3a4e752e	0.00078757375
137	0xbc945b6d	-0.018110001
138	0x3ccdc2b1	0.02511725
139	0xbd07650c	-0.03305535
140	0xba7ba5db	-0.00095996045
141	0xbbdc7981	-0.0067283516
142	0x3c78be30	0.015182063
143	0xbc4338d6	-0.011915406
144	0xbcef4647	-0.029208316
145	0x3c079120	0.008274347
146	0xbc3330bc	-0.010936912
147	0xbb1f4230	-0.0024300925
148	0xbbfefd03	-0.007781626
149	0x3b603f39	0.003421737
150	0x3cc4fe79	0.024047123
151	0x3c24ce14	0.0100588985
152	0x3d07356a	0.033009924
153	0xbcdd059c	-0.026980214
154	0x3c98aa4e	0.018635895
155	0xbce333fe	-0.027734753
156	0xbba1ca76	-0.0049374653
157	0x3c3a3ea4	0.011367474
158	0x39285734	0.00016054214
159	0xbcbd07db	-0.023075035
160	0xbc00a8d2	-0.00785275
161	0xbd0a963f	-0.033834692
162	0x3be263b0	0.0069088563
163	0xbcc17f89	-0.023620384
164	0xbcfdf119	-0.030998753
165	0xbb07385f	-0.0020632965
166	0xbc39d117	-0.011341355
167	0xbcf04782	-0.029330973
168	0x3c33a94d	0.010965657
169	0x3cea051b	0.028566888
170	0x3bb994c9	0.0056634885
171	0xbca7f342	-0.020501737
172	0xbb4a6390	-0.0030882098
173	0x3b40500e	0.0029344591
174	0xbcb4e88b	-0.022083541
175	0x3b27d4de	0.0025609056
176	0x3c354d15	0.011065741
177	0x3d0b8a6f	0.034067567
178	0x3d13d44a	0.036091127
179	0xbb8aaac2	-0.0042317817
180	0x3c1ee1a2	0.00969735
181	0xbc749b95	-0.014929672
182	0xbc53e9a7	-0.012934125
183	0x3c917d07	0.017759813
184	0xbd0a4088	-0.033752948
185	0xbc0f3869	-0.008741477
186	0xbcdbf61e	-0.026850756
187	0xbb003b9c	-0.001956678
188	0xbd2204b9	-0.039555285
189	0xbd30f174	-0.043199018
190	0xbcc19a9a	-0.02363329
191	0x3c27a83c	0.010232981
192	0x3c8232d1	0.015893372
193	0x3c1e2c37	0.009654096
194	0xbc689564	-0.014195774
195	0xbc3127e0	-0.01081273
196	0x39fc13bf	0.00048079898
197	0xbd08bc5d	-0.033382762
198	0xbcbe6b7b	-0.02324461
199	0x3cf95a3c	0.030438535
200	0xbcc848c8	-0.024448767
201	0x3d2a0070	0.041504323
202	0x3c3253ce	0.010884238
203	0xbafdbfe5	-0.0019359557
204	0x3cf09e78	0.029372439
205	0x3d7923e0	0.06082523
206	0x3b7fbe49	0.003902333
207	0x3d037766	0.03209629
208	0xbba688e4	-0.0050822366
209	0x3b9cb9b1	0.0047828783
210	0xbd00c950	-0.031441987
211	0xbcf93a01	-0.030423166
212	0x3c8cc759	0.0171849
213	0xbd05ccf9	-0.03266618
214	0x3c063c3c	0.008193072
215	0x3c04d5ad	0.008107585
216	0xbc016713	-0.00789811
217	0xbd15b0cd	-0.036545563
218	0xbd269795	-0.040671904
219	0x3c92de58	0.017928287
220	0xbcb26958	-0.021778747
221	0xbc85b69c	-0.016322426
222	0xbbced826	-0.006312388
223	0x3d0683d6	0.032840572
224	0xbc690c4d	-0.014224124
225	0x3afcdb25	0.0019291384
226	0x3b800eda	0.0039080204
227	0x3c1395b9	0.009007865
228	0xbc82b8b2	-0.01595721
229	0xbc3196b4	-0.010839153
230	0x3cc9b1d4	0.024620928
231	0x3cf4100b	0.029792806
232	0x3c226b2d	0.009913248
233	0x3c5a765a	0.013333881
234	0xbc501d84	-0.01270235
235	0x3cf45430	0.0298253
236	0xbce0a383	-0.027421718
237	0xbb446835	-0.0029969339
238	0xbd26f881	-0.040764336
239	0xbd35e39e	-0.044406526
240	0xbd12cd83	-0.035840522
241	0xbc624a2d	-0.01381163
242	0xbc3f6f04	-0.011684183
243	0x3c80a42e	0.015703287
244	0x3cb80cd9	0.022467064
245	0xbcf24911	-0.029575856
246	0xbccd1ff2	-0.025039647
247	0xbb0ed731	-0.0021795745
248	0xbd2b3d9c	-0.041806802
249	0xbce55046	-0.027992379
250	0xbbf26409	-0.007397179
251	0x3a8d5fbf	0.0010785981
252	0xbd142d95	-0.036176283
253	0xbc756fd1	-0.014980272
254	0x3d01d471	0.03169674
255	0x3c4366be	0.011926351

fc1.bias f4 [128]
0	0xbcf24a72	-0.029576514
1	0xbcd76912	-0.026295219
2	0x3cae08b0	0.021244377
3	0xbc980f84	-0.018562086
4	0xbd0aa365	-0.03384723
5	0x3cca2f13	0.02468065
6	0xbcd9a69c	-0.026568703
7	0xb9de1b93	-0.00042363684
8	0xb9b9191a	-0.00035304652
9	0x3cf2b9df	0.029629646
10	0xbc67adfb	-0.014140601
11	0x3bafef5e	0.005369111
12	0x3c2c6d3d	0.010524091
13	0x3bff608f	0.007793493
14	0xbc881802	-0.01661301
15	0x3c880724	0.016604967
16	0x3cc5e916	0.024158996
17	0x3b69d4b6	0.0035679764
18	0xbd072ad3	-0.032999825
19	0xbcadaac9	-0.0211996
20	0xbca2a01c	-0.019851737
21	0x3c07c75f	0.00828728
22	0x3d0edb4a	0.0348771
23	0x3d02843b	0.031864386
24	0x3b94fab1	0.0045464863
25	0x3d0c60cb	0.034271996
26	0xbcdb4938	-0.026768312
27	0xbc6f2187	-0.014595396
28	0x3b8148de	0.003945454
29	0xbd0bc620	-0.034124494
30	0xbcf1b211	-0.029503854
31	0xbcda11e6	-0.026619863
32	0x3ce5a4bb	0.028032651
33	0x3ca65d45	0.020308146
34	0x3cb6665b	0.022265604
35	0xbce9bdc1	-0.028532865
36	0x3ccf3aa4	0.025296517
37	0xbc788715	-0.015168925
38	0xbce6f666	-0.028193664
39	0x3c4f1b95	0.012640853
40	0x3d1afe11	0.037839953
41	0x3d052a44	0.03251101
42	0x3cb43d3b	0.022001853
43	0xbca4f1a7	-0.02013476
44	0x3ccaa54e	0.024737027
45	0xbd07478c	-0.033027217
46	0x3d12bf17	0.03582677
47	0xbaeddf92	-0.0018148294
48	0xbb721aef	-0.0036942323
49	0xbc0377cc	-0.008024167
50	0x3c211df2	0.0098338
51	0xbc72bd6e	-0.014815671
52	0x3c1b7348	0.009487934
53	0xbc5bf6d5	-0.013425549
54	0xbc3b8f67	-0.011447764
55	0xbcb39a3f	-0.021924136
56	0xbc82c16d	-0.015961373
57	0x3c8f1514	0.017466106
58	0xbc9ca416	-0.019121211
59	0x3c882c38	0.016622648
60	0xbca6eaee	-0.020375695
61	0x3bc577b0	0.0060262308
62	0x3c7bb26e	0.015362365
63	0xbc053d2a	-0.008132258
64	0x3cf058ce	0.02933922
65	0x3d07c845	0.033149976
66	0x3cd2ad05	0.025717268
67	0x3cf977bc	0.030452602
68	0x3a84f715	0.0010144437
69	0x3ce51956	0.027966183
70	0xbd2216e7	-0.039572623
71	0x3c003420	0.007824928
72	0x3a8d7807	0.0010793217
73	0x3d1355cc	0.035970494
74	0x3c960f9e	0.018317994
75	0x3adf9054	0.0017056563
76	0x3a112b08	0.0005537723
77	0xbab968aa	-0.0014145572
78	0x3c3ef493	0.011654991
79	0x3b250b02	0.0025183563
80	0x3c902743	0.017596846
81	0xbc9b204f	-0.018936304
82	0x3cc69875	0.024242619
83	0x3c0fec96	0.008784434
84	0x3c911294	0.017709054
85	0x3c716fa9	0.0147360945
86	0xbca39aa4	-0.0199712
87	0x3cc4e381	0.024034264
88	0x3b147fea	0.002265925
89	0x3ca563cb	0.020189187
90	0xbcbac2c4	-0.02279795
91	0xbc996215	-0.018723527
92	0x3c968447	0.018373622
93	0xbc014b3d	-0.007891473
94	0x3cab2ced	0.020895446
95	0xbcda863a	-0.026675332
96	0xbcda626b	-0.026658257
97	0xbd11ee61	-0.035627726
98	0xbcae4785	-0.021274338
99	0xbbba8198	-0.0056917183
100	0x3cb8fab0	0.022580475
101	0x3abc9bf9	0.0014389745
102	0xbc06a109	-0.008217105
103	0xbbd4d9ed	-0.0064957053
104	0xbc12f928	-0.008970536
105	0xbc2b5655	-0.010457595
106	0xbce1cff0	-0.027564973
107	0x3d07db3c	0.033168063
108	0x39596ff1	0.00020736434
109	0x3cf3d2fa	0.029763687
110	0x3c17e7ad	0.009271544
111	0x3ca7c7c9	0.020481007
112	0xbd0f8db7	-0.03504726
113	0xbc0b41b3	-0.008499551
114	0xbc810ab0	-0.015752167
115	0xbcef5837	-0.029216869
116	0xbc62545f	-0.013814061
117	0xbc8e0736	-0.017337423
118	0x3caa95b1	0.020823332
119	0xbb411bc4	-0.0029466012
120	0xbcb98aea	-0.022649247
121	0xbc8d50b5	-0.017250398
122	0xbcd4f465	-0.025995443
123	0x3c862686	0.016375791
124	0xbc57a1a8	-0.0131611
125	0xbc823f85	-0.01589943
126	0x3c346553	0.011010486
127	0xbd0c6253	-0.034273457

fc2.weight f4 [64, 128]
0	0x3d33aefd	0.043868054
1	0xbdba3309	-0.090917654
2	0x3d3d4b0f	0.04621416
3	0xbdecd8a2	-0.11564757
4	0x3db48b02	0.08815576
5	0x3d5608b0	0.05225438
6	0x3d3af1d9	0.0456408
7	0x3db488d8	0.088151634
8	0x3d296ad8	0.04136166
9	0x3dd1cff8	0.10244745
10	0xbdb577fc	-0.08860776
11	0x3db85b60	0.090018034
12	0xbd8ec754	-0.069716126
13	0x3dc917d0	0.09818995
14	0x3d1d1ba5	0.038356442
15	0xbd85c801	-0.06532288
16	0x3df23941	0.118273266
17	0x3d730299	0.05932865
18	0x3d48a19b	0.048982244
19	0xbd9a273b	-0.07527014
20	0x3d543c5b	0.051815372
21	0x3d7ada18	0.061243147
22	0x3d3f0e32	0.046644397
23	0x3d9af23f	0.07565736
24	0xbd80a342	-0.06281139
25	0x3caa40b4	0.020782806
26	0x3d909daf	0.07061326
27	0x3ca793cf	0.020456223
28	0xbdabfa3b	-0.08397337
29	0xbd7096e5	-0.058737654
30	0xbe5de56a	-0.21669546
31	0xbd9aeb4e	-0.07564412
32	0xbde81987	-0.11332994
33	0x3ded3fe7	0.11584454
34	0xbce603b0	-0.02807793
35	0x3e178fa4	0.14800888
36	0x3daeb1f8	0.085300386
37	0xbb691b38	-0.0035569202
38	0x3ca52d64	0.020163245
39	0x3df7e99d	0.12105105
40	0xbda8e726	-0.08247213
41	0x3dfce1df	0.12347769
42	0xbdc7f6eb	-0.09763893
43	0xbd311f79	-0.043242905
44	0xbd1b4163	-0.037904155
45	0x3d65e708	0.05612853
46	0xbda16102	-0.07879831
47	0x3d84cfd0	0.064849496
48	0x3dc861d2	0.09784283
49	0x3daf290f	0.08552753
50	0xbd8d7e92	-0.06908907
51	0x3dc74a8f	0.09731018
52	0x3dd56cb4	0.10421124
53	0x3c611acf	0.013739302
54	0xbdf2fcbb	-0.11864611
55	0x3e1afadd	0.15134759
56	0xbdac0cd7	-0.084008865
57	0xbdcad761	-0.099043615
58	0xbc8024b7	-0.015642507
59	0x3e03e424	0.12879997
60	0x3e0374d8	0.12837541
61	0xbd82f0cc	-0.063935846
62	0x3d812a75	0.06306926
63	0x3d97bfba	0.07409616
64	0x3dda5a51	0.10661758
65	0x3d95b1b6	0.07309286
66	0xbd7623bd	-0.060092676
67	0x3d85185c	0.06498787
68	0xbd466412	-0.04843528
69	0x3dc9edda	0.0985982
70	0xbdc74dc8	-0.097316325
71	0x3dc34f3e	0.095365986
72	0x3dd668d5	0.10469214
73	0x3dfe584c	0.12419185
74	0x3dd65f63	0.10467412
75	0xbc100f96	-0.0087927785
76	0x3dbe1c3c	0.09282729
77	0x3d97b916	0.07408349
78	0xbda02ce5	-0.07821063
79	0xbc1a78e8	-0.00942824
80	0x3de37d06	0.11107831
81	0xbd9e19f6	-0.077197954
82	0xbcbdcb28	-0.023168162
83	0x3d72ab75	0.059245545
84	0x3d56fa3d	0.05248474
85	0xbc0a800c	-0.00845338
86	0x3caffdb5	0.021483282
87	0xbd171c22	-0.036892064
88	0xbc3bf49a	-0.011471892
89	0x3c92bd0a	0.017912406
90	0xbcbaa55f	-0.022783933
91	0x3d1b4e4b	0.037916463
92	0xbdd329a9	-0.103106804
93	0xbcbbd282	-0.022927526
94	0x3b33ba15	0.0027424146
95	0xbd1c1c6f	-0.038113054
96	0x3d9717a0	0.07377553
97	0x3aa08bb3	0.0012248665
98	0xbcb3b808	-0.021938339
99	0x3d7828ef	0.060585912
100	0xbd009b9b	-0.031398397
101	0xbcbaa670	-0.022784442
102	0xbcc59ce3	-0.024122661
103	0xbdf9ab20	-0.12190843
104	0xbe0fdff1	-0.1405027
105	0xbd29b36a	-0.04143087
106	0x3d9a189c	0.07524225
107	0x3da54303	0.08069422
108	0x3db3f3d3	0.0878674
109	0x3cf8f98e	0.030392434
110	0x3d7d4ff3	0.061843824
111	0x3d63f14b	0.055650037
112	0x3d587ee8	0.052855402
113	0x3cb6f69d	0.022334391
114	0x3d2af37d	0.041736115
115	0xbd9f9cb0	-0.07793558
116	0x3d0a5adb	0.033778053
117	0xbd9ac311	-0.07556737
118	0xbd40c679	-0.04706428
119	0xbdb755fa	-0.089519456
120	0xbc2c6d21	-0.010524065
121	0xbd905b80	-0.07048702
122	0x3d848a8a	0.06471737
123	0x3d5cd110	0.053910315
124	0x3de2173e	0.11039589
125	0xbb8195f1	-0.003954642
126	0xbc7e3f9c	-0.015518095
127	0x3c32c4b7	0.010911158
128	0x3da0672f	0.07832181
129	0x3d6aed68	0.057355314
130	0x3db37b5e	0.08763765
131	0x3c494ee0	0.012286872
132	0xbd01db5a	-0.03170333
133	0x3d9e240a	0.07721718
134	0x3d7c56f7	0.061606374
135	0x3d2ebe10	0.042661726
136	0x3dc30e2e	0.09524189
137	0x3cade822	0.021228854
138	0x3df73fd2	0.1207272
139	0x3cf1946b	0.029489717
140	0xbe36bfb5	-0.17846568
141	0xbd916479	-0.07099242
142	0xbe2ad46e	-0.16682598
143	0x3d5f328b	0.05449156
144	0x3d208901	0.039193157
145	0xbc010252	-0.007874088
146	0x3d4e43f3	0.05035777
147	0x3d7b0324	0.061282292
148	0x3ce7a53a	0.028277028
149	0xbd6cfe4d	-0.057859708
150	0xbda60557	-0.08106487
151	0xbd9ad1e6	-0.07559566
152	0x3d659a47	0.056055333
153	0xbd7a5d7f	-0.06112432
154	0x3d969424	0.07352474
155	0x3d3d05be	0.046148054
156	0xbd3ee5d8	-0.046605915
157	0xbc809cff	-0.015699862
158	0xbc0f0323	-0.008728775
159	0xbd915141	-0.07095576
160	0xbd8bcb6c	-0.06825909
161	0x3df26c7f	0.118371
162	0xbd0c7920	-0.0342952
163	0x3d0e4b26	0.034739636
164	0x3e09d5d5	0.13460477
165	0xbd6eb6f4	-0.058279946
166	0xbbb301c8	-0.005462859
167	0x3e2bbd89	0.1677152
168	0x3db72ae7	0.0894373
169	0x3d5f6be7	0.054546263
170	0xbd941269	-0.07230074
171	0x3da4503d	0.08023117
172	0xbd027edc	-0.031859264
173	0x3cbe1eb3	0.023207998
174	0x3d107b14	0.035273626
175	0xbda13e2a	-0.07873185
176	0x3c00741e	0.0078401845
177	0x3d00da03	0.031457912
178	0x3d90e4bc	0.070748776
179	0x3dd2afa9	0.10287411
180	0x3ccfb62b	0.02535542
181	0xbd0525fd	-0.03250693
182	0xba6b69a5	-0.0008980281
183	0x3df7400c	0.12072763
184	0x3dae1190	0.084994435
185	0xbd9b4e06	-0.07583241
186	0x3cd7ae33	0.026328182
187	0xbe227471	-0.15864731
188	0x3dc236d9	0.094831176
189	0x3cf3708b	0.02971675
190	0x3a96ee49	0.0011515106
191	0x3d85cad7	0.06532829
192	0xbd5adf51	-0.053435627
193	0x3da9bf1e	0.08288406
194	0x3c69d330	0.014271542
195	0xbdc76795	-0.097365536
196	0xbdc48915	-0.09596459
197	0x3d0b389f	0.033989545
198	0xbd593bfe	-0.05303573
199	0x3df47127	0.119356446
200	0xbd3160dc	-0.043305263
201	0xbd865aba	-0.065602735
202	0xbd23ec80	-0.040020466
203	0xbc22a91a	-0.009928012
204	0x3d25f581	0.040517334
205	0xbd359ed7	-0.044340935
206	0xbe045381	-0.12922479
207	0x3d35a4f6	0.044346772
208	0xbd584d05	-0.052807827
209	0x3d8b16d5	0.06791464
210	0x3d2d96b3	0.042380046
211	0xbde5b8b0	-0.11216867
212	0xbdaef6ed	-0.08543191
213	0x3e1a8020	0.15087938
214	0xbcd5fc33	-0.026121235
215	0x3d2ea9e5	0.042642493
216	0xbd29fded	-0.041501928
217	0xbd527b8a	-0.051387347
218	0xbc5222dc	-0.012825694
219	0x3d56b575	0.052419145
220	0xbddc4ff0	-0.10757434
221	0x3ca7ae1c	0.020468764
222	0xbd124569	-0.035710726
223	0x3b7d0646	0.0038608476
224	0x3d092cea	0.0334901
225	0x3d270eb2	0.0407855
226	0x3da22453	0.079170845
227	0x3d16e890	0.036842883
228	0xbd104e82	-0.03523112
229	0xbd73031a	-0.05932913
230	0xbd426ed5	-0.04746898
231	0xbdceeecc	-0.10104141
232	0xbdb9c2a4	-0.09070328
233	0x3cef3609	0.02920057
234	0xbe2e9555	-0.17049153
235	0x3d2dc87a	0.042427517
236	0x3d0374f7	0.03209397
237	0xbdb847fd	-0.08998106
238	0x3953f89b	0.00020215141
239	0x3d741954	0.059594467
240	0xbdf8aa76	-0.12141888
241	0xbd6f9d26	-0.058499478
242	0x3de87079	0.113495775
243	0xbc727f5c	-0.014800873
244	0xbd4f3d80	-0.05059576
245	0xbdac1e4d	-0.08404217
246	0xbdc765ac	-0.09736189
247	0xbdf67e7b	-0.12035843
248	0xbc0be356	-0.008538088
249	0xbc1582fd	-0.009125468
250	0xbdb57fa7	-0.088622384
251	0xbc1d0346	-0.0095833
252	0x3d3c8e91	0.0460344
253	0x3d42db27	0.04757228
254	0xbd2c1aa1	-0.042017583
255	0x3db3efa9	0.08785946

fc2.bias f4 [64]
0	0xbc0e6d24	-0.008693013
1	0x3d0c8d63	0.034314524
2	0xbc8ade0a	-0.01695158
3	0xbcb011ce	-0.021492865
4	0x3d147c8a	0.036251582
5	0x3da563d3	0.080756806
6	0x3d4fa311	0.05069262
7	0x3bbf4519	0.0058370945
8	0xbbd50d06	-0.0065017967
9	0x3d380551	0.044926945
10	0x3db1b1ac	0.08676466
11	0x3da097f3	0.07841482
12	0x3c716eb6	0.014735868
13	0x3db9d294	0.09073368
14	0x3db03ba9	0.08605129
15	0xbd59658b	-0.053075355
16	0x3d5b6696	0.05356463
17	0xbb261ded	-0.0025347427
18	0x3d8b74fb	0.06809422
19	0x3d836f3b	0.064177
20	0x3d00a855	0.031410534
21	0x3d9007ba	0.07032724
22	0x3d8ebc8f	0.069695584
23	0xbd9317c4	-0.07182267
24	0xbca2c2c3	-0.01986826
25	0x3c77f7bd	0.015134749
26	0x3dbc77e6	0.09202556
27	0xbbae7d35	-0.0053249844
28	0xbd59e81b	-0.05319987
29	0xbc5f165d	-0.013616172
30	0xbda6becc	-0.0814186
31	0x3dbb707f	0.09152316
32	0xbc070ca8	-0.008242764
33	0x3c7f4cde	0.015582291
34	0x3bb13f9e	0.005409195
35	0x3daa36ec	0.08311257
36	0x3b57cf2d	0.0032929883
37	0xbd946e3b	-0.07247587
38	0x3c1bbba5	0.009505187
39	0x3c970c3a	0.018438447
40	0x3d420399	0.047366712
41	0x3d851b5f	0.06499361
42	0x3d116cba	0.03550408
43	0x3cd7d12d	0.02634486
44	0xbb9e384d	-0.004828489
45	0xbd8af2b5	-0.06784574
46	0x3a51705e	0.00079894613
47	0x3dad7ec0	0.08471441
48	0xbd938c1f	-0.0720446
49	0xbd862119	-0.065492816
50	0x3c8b81fe	0.017029759
51	0xbd750861	-0.059822444
52	0xbd949170	-0.072543025
53	0xbcc28978	-0.02374719
54	0x3db85805	0.090011634
55	0xbd180416	-0.03711327
56	0x3dbfdf91	0.09368814
57	0x3c815244	0.015786298
58	0x3c9dcfe9	0.019264178
59	0x3db427f5	0.08796684
60	0x3d9c6204	0.076358825
61	0x3bd95607	0.0066325697
62	0xbd79acb4	-0.06095572
63	0x3d8fcf6f	0.07021987

fc3.weight f4 [10, 64]
0	0xbee2b073	-0.44275245
1	0xbd671ffe	-0.056426995
2	0xbe9548b5	-0.29157034
3	0xbdbe428e	-0.09290038
4	0x3e10bf40	0.14135456
5	0xbe1ea7bf	-0.15493678
6	0x3d980ddc	0.074245185
7	0x3d0503d0	0.03247434
8	0x3c66b1f8	0.014080517
9	0x3d805372	0.06265916
10	0x3d52cb0a	0.051463164
11	0xbdfc3326	-0.12314443
12	0x3e31359f	0.17305611
13	0xbded493c	-0.11586234
14	0x3e427d8a	0.18993202
15	0xbdbb258d	-0.091380216
16	0xbe4d8e0a	-0.20073715
17	0x3e663a27	0.22483121
18	0x3e30f4a0	0.17280817
19	0xbc350bd1	-0.0110501805
20	0xbe13fcc7	-0.14451896
21	0x3e25543e	0.16145417
22	0xbe1774e0	-0.14790678
23	0x3c860dd4	0.016364016
24	0xbdef5388	-0.11685854
25	0xbd282461	-0.04105032
26	0x3e96c87c	0.29449832
27	0xbd44f350	-0.048083603
28	0xbdfeeaa3	-0.12447097
29	0xbe49081e	-0.19632003
30	0xbe9c9e2f	-0.30589435
31	0xbe13d4f6	-0.14436707
32	0x3da5857f	0.08082103
33	0xbde76615	-0.112987675
34	0x3e8d5b82	0.27608877
35	0xbe316315	-0.17322953
36	0xbe951b90	-0.2912259
37	0x3d5608df	0.052254554
38	0x3da10bd3	0.078635834
39	0x3e0d4a46	0.13797864
40	0xbe3dab98	-0.18522489
41	0x3ed0820a	0.40724212
42	0xbc7cea49	-0.015436717
43	0xbe336a3b	-0.17520992
44	0x3cc51c34	0.0240613
45	0xbdc2ea21	-0.09517313
46	0x3d384059	0.04498324
47	0x3e19bfe2	0.15014604
48	0xbd5331c0	-0.051561117
49	0xbd9f4823	-0.07777431
50	0x3d5605c0	0.052251577
51	0x3ce77f28	0.028258875
52	0x3b9ec954	0.0048457775
53	0x3eadce6a	0.33946544
54	0xbe663619	-0.22481574
55	0xbdc9bd3a	-0.09850545
56	0x3e7b6c9a	0.24553147
57	0x3ccfe41b	0.025377324
58	0x3e08d159	0.1336111
59	0x3db48592	0.08814539
60	0xbd74bec3	-0.059752237
61	0xbd015710	-0.03157717
62	0xbebc6a5c	-0.36799896
63	0xbdc07b6f	-0.09398543
64	0x3e293c4c	0.16526908
65	0xbaecd90b	-0.0018070055
66	0x3cffc314	0.03122095
67	0x3df469fb	0.11934277
68	0xbe2e343b	-0.17012112
69	0xbc8f0c40	-0.017461896
70	0xbc4952e4	-0.012287829
71	0x3e17dfc9	0.14831461
72	0xbdc19a6d	-0.094532825
73	0x3d637ccc	0.055538937
74	0x3e059260	0.13044119
75	0x3df1292d	0.11775432
76	0xbcb7674f	-0.022388129
77	0x3d6bb82a	0.05754868
78	0xbd111cb4	-0.035427764
79	0xbc956e8e	-0.018241193
80	0xbdc9a33b	-0.09845587
81	0xbea68676	-0.3252446
82	0x3bf61093	0.0075093
83	0x3e1ab9bb	0.15109913
84	0x3eea9eb9	0.4582422
85	0xbd0b5cea	-0.034024157
86	0x3e0e5450	0.1389935
87	0xbe543d2e	-0.20726463
88	0xbe64ba40	-0.22336674
89	0x3e31ec1f	0.1737523
90	0xbe37fe74	-0.1796816
91	0xbda176b0	-0.07883966
92	0x3ceeefbf	0.029167054
93	0xbe45badc	-0.19309562
94	0x3ecc990a	0.3996051
95	0x3db55987	0.088549666
96	0xbdb3c282	-0.08777334
97	0xbd532362	-0.051547416
98	0xbdf6ac4b	-0.12044581
99	0xbe67f07c	-0.22650331
100	0x3dc0036a	0.09375651
101	0xbc43428a	-0.01191772
102	0xbcf50ed4	-0.029914297
103	0x3d7a5849	0.06111935
104	0xbe2f4b1b	-0.17118494
105	0xbd87e118	-0.0663473
106	0x3d97ef8a	0.07418735
107	0x3d39c6d7	0.045355644
108	0xbe943403	-0.28945932
109	0x3e935313	0.28774318
110	0xbd8ef7ba	-0.06980844
111	0x3cd2728a	0.025689382
112	0xbe3cf9d6	-0.1845468
113	0x3d860236	0.065433905
114	0xbabd1326	-0.0014425262
115	0xbdef5022	-0.11685206
116	0x3ea8bdc3	0.32957277
117	0xbe7534c9	-0.23945917
118	0xbdf80ea0	-0.121121645
119	0xbe829b3e	-0.25509065
120	0xbec6aaa0	-0.38802052
121	0x3d89fcbd	0.06737659
122	0xbe8a7f06	-0.27050036
123	0xbde53b08	-0.111929
124	0xbe006d61	-0.12541725
125	0x3cbe46b8	0.02322708
126	0x3e4b63e2	0.19862321
127	0x3dee51e7	0.116367154
128	0xbd22aea0	-0.039717317
129	0xbec557d6	-0.38543576
130	0xbc072bf2	-0.0082502235
131	0xbde51430	-0.11185491
132	0xbdb38943	-0.08766415
133	0x3e011ee3	0.12609439
134	0x3d041c76	0.032253705
135	0xbea08e28	-0.31358457
136	0x3e8b00e6	0.27149123
137	0xbdb04129	-0.08606178
138	0x3e61fde3	0.22069506
139	0x3d44c6ce	0.048041157
140	0x3e37e4c7	0.17958365
141	0xbbc31247	-0.0059531066
142	0x3e60f6e5	0.21969183
143	0x3e9fdf1d	0.3122491
144	0xbe05a113	-0.13049726
145	0xbe729955	-0.23691304
146	0x3e444b93	0.19169454
147	0xbe0acdfb	-0.13555138
148	0xbe6b1d85	-0.2296048
149	0x3e47c5ac	0.19509
150	0xbcdaa2ad	-0.026688898
151	0x3d2aedcc	0.041730687
152	0xbd91e8f1	-0.07124508
153	0x3d5da81b	0.054115396
154	0x3c41d41e	0.011830358
155	0xbddb4404	-0.10706332
156	0xbe0afdd0	-0.13573384
157	0xbe595ea1	-0.21227504
158	0x3d7dc262	0.061952956
159	0xbc04c506	-0.008103615
160	0x3caf6894	0.021412171
161	0x3d5d8df2	0.054090448
162	0xbb6c96db	-0.003610066
163	0x3e500cde	0.20317408
164	0x3d0baeae	0.034102134
165	0xbd8864e9	-0.06659872
166	0xbdbae765	-0.09126166
167	0xbce8b2dc	-0.0284056
168	0x3e925211	0.28578237
169	0x3ebe9d4d	0.37229386
170	0x3d9159b0	0.07097185
171	0x3e296260	0.16541433
172	0x3e16164a	0.1465694
173	0x3ebc84c5	0.36820045
174	0xbd7c1101	-0.061539654
175	0xbe852ff9	-0.26013163
176	0xba5788f8	-0.0008222009
177	0x3ea57fb1	0.32323983
178	0x3d2a1049	0.041519437
179	0xbda9f467	-0.08298569
180	0xbe85eca0	-0.26157093
181	0xbe08c36f	-0.13355802
182	0x3d936007	0.0719605
183	0x3ef5344e	0.47891468
184	0x3cdf32b8	0.027245864
185	0xbda0bacd	-0.078481294
186	0xbe9054c7	-0.2818968
187	0xbd9e746d	-0.0773705
188	0xbdad60b1	-0.08465708
189	0x3d8c7b7e	0.06859492
190	0xbda58a4a	-0.08083017
191	0xbe3bdc1f	-0.18345688
192	0xbd13e362	-0.03610552
193	0x3e3835ef	0.17989324
194	0xbe791174	-0.24323064
195	0x3c33122e	0.010929627
196	0xbc697a14	-0.014250297
197	0xbe98a651	-0.2981439
198	0xbd0f8696	-0.03504046
199	0xbe00916f	-0.12555479
200	0xbd363e39	-0.044492934
201	0x3cf9df9e	0.030502137
202	0x3df47184	0.11935714
203	0x3d4a0aa5	0.049326558
204	0xbe11d856	-0.14242682
205	0x3db6fa58	0.08934468
206	0xbdeaee78	-0.114712656
207	0x3d6fda5c	0.058557853
208	0x3e19cb5e	0.15018985
209	0xbe39378e	-0.18087599
210	0x3e2ca7ae	0.1686084
211	0x3eaf748a	0.342686
212	0x3eb632e5	0.35585704
213	0xbe50b46c	-0.20381325
214	0x3d613014	0.05497749
215	0xbe6e4a4d	-0.23270531
216	0x3d45caa5	0.04828896
217	0x3deeeec3	0.11666634
218	0xbd047ae3	-0.032343756
219	0xbb975a7e	-0.004618942
220	0xbd6bb2b5	-0.057543475
221	0x3e7099d3	0.2349618
222	0xbeb15f94	-0.34643233
223	0x3e2ee4ad	0.1707942
224	0x3bfea0c6	0.0077706305
225	0x3ce47ce6	0.027891587
226	0x3e449f53	0.19201402
227	0x3e809475	0.25113264
228	0xbe14fb56	-0.14549002
229	0xbd8c099c	-0.0683777
230	0x3e8ca8f7	0.2747266
231	0xbdfc9efd	-0.12335012
232	0xbe4e759f	-0.20162056
233	0x3de55a59	0.11198873
234	0xbd30c51d	-0.043156732
235	0x3e40f7e6	0.18844566
236	0x3e404091	0.1877463
237	0xbdecc94f	-0.11561834
238	0x3e14189a	0.1446251
239	0xbe2d6616	-0.16933474
240	0xbe68d6cb	-0.22738187
241	0x3db0784b	0.08616694
242	0xbdf6b798	-0.120467365
243	0xbd6ae9f6	-0.05735203
244	0xbe8f5a0d	-0.2799839
245	0xbea3f341	-0.32021526
246	0xbe1e5d67	-0.15465318
247	0x3e730d3d	0.23735519
248	0x3d89cddf	0.0672872
249	0xbdda99f1	-0.10673893
250	0xbe94edc5	-0.29087654
251	0xbdc8b8de	-0.098008856
252	0x3c18d5af	0.00932829
253	0x3de88ac6	0.11354594
254	0x3d9ed0ce	0.0775467
255	0x3e1f5d6a	0.15562978

fc3.bias f4 [10]
0	0xbdc470af	-0.09591805
1	0x3d0348b1	0.032051746
2	0x3decef8b	0.11569127
3	0x3daca6b5	0.08430234
4	0x3cea0a4a	0.02856936
5	0x3dfc491d	0.12318633
6	0x3dc20006	0.09472661
7	0xbd9da9fa	-0.07698436
8	0x3df9ac3d	0.12191055
9	0x3dacc733	0.08436432
